…
output_nc: 3
phase: train
print_freq: 40
resize_or_crop: resize_and_crop
save_display_freq: 5000
save_epoch_freq: 20
save_latest_freq: 5000
serial_batches: False
sort_classes: True
sort_order: ['0-2', '3-6', '7-9', '15-19', '30-39', '50-69']
use_modulated_conv: True
use_resblk_pixel_norm: False
verbose: True
which_epoch: latest
-------------- End ----------------
AgingDataLoader
dataset [MulticlassUnalignedDataset] was created
#training images = 7116
Generator(
  (id_encoder): IdentityEncoder(
    (encoder): Sequential(
      (0): ReflectionPad2d((3, 3, 3, 3))
      (1): EqualConv2d(
        (conv): Conv2d(3, 64, kernel_size=(7, 7), stride=(1, 1))
      )
      (2): PixelNorm()
      (3): ReLU(inplace=True)
      (4): ReflectionPad2d((1, 1, 1, 1))
      (5): EqualConv2d(
        (conv): Conv2d(64, 128, kernel_size=(3, 3), stride=(2, 2))
      )
      (6): PixelNorm()
      (7): ReLU(inplace=True)
      (8): ReflectionPad2d((1, 1, 1, 1))
      (9): EqualConv2d(
        (conv): Conv2d(128, 256, kernel_size=(3, 3), stride=(2, 2))
      )
      (10): PixelNorm()
      (11): ReLU(inplace=True)
      (12): ResnetBlock(
        (conv_block): Sequential(
          (0): ReflectionPad2d((1, 1, 1, 1))
          (1): EqualConv2d(
            (conv): Conv2d(256, 256, kernel_size=(3, 3), stride=(1, 1))
          )
          (2): PixelNorm()
          (3): ReLU(inplace=True)
          (4): ReflectionPad2d((1, 1, 1, 1))
          (5): EqualConv2d(
            (conv): Conv2d(256, 256, kernel_size=(3, 3), stride=(1, 1))
          )
          (6): PixelNorm()
        )
      )
      (13): ResnetBlock(
        (conv_block): Sequential(
          (0): ReflectionPad2d((1, 1, 1, 1))
          (1): EqualConv2d(
            (conv): Conv2d(256, 256, kernel_size=(3, 3), stride=(1, 1))
          )
          (2): PixelNorm()
          (3): ReLU(inplace=True)
          (4): ReflectionPad2d((1, 1, 1, 1))
          (5): EqualConv2d(
            (conv): Conv2d(256, 256, kernel_size=(3, 3), stride=(1, 1))
          )
          (6): PixelNorm()
        )
      )
      (14): ResnetBlock(
        (conv_block): Sequential(
          (0): ReflectionPad2d((1, 1, 1, 1))
          (1): EqualConv2d(
            (conv): Conv2d(256, 256, kernel_size=(3, 3), stride=(1, 1))
          )
          (2): PixelNorm()
          (3): ReLU(inplace=True)
          (4): ReflectionPad2d((1, 1, 1, 1))
          (5): EqualConv2d(
            (conv): Conv2d(256, 256, kernel_size=(3, 3), stride=(1, 1))
          )
          (6): PixelNorm()
        )
      )
      (15): ResnetBlock(
        (conv_block): Sequential(
          (0): ReflectionPad2d((1, 1, 1, 1))
          (1): EqualConv2d(
            (conv): Conv2d(256, 256, kernel_size=(3, 3), stride=(1, 1))
          )
          (2): PixelNorm()
          (3): ReLU(inplace=True)
          (4): ReflectionPad2d((1, 1, 1, 1))
          (5): EqualConv2d(
            (conv): Conv2d(256, 256, kernel_size=(3, 3), stride=(1, 1))
          )
          (6): PixelNorm()
        )
      )
    )
  )
  (age_encoder): AgeEncoder(
    (encoder): Sequential(
      (0): ReflectionPad2d((3, 3, 3, 3))
      (1): EqualConv2d(
        (conv): Conv2d(3, 64, kernel_size=(7, 7), stride=(1, 1))
      )
      (2): LeakyReLU(negative_slope=0.2, inplace=True)
      (3): ReflectionPad2d((1, 1, 1, 1))
      (4): EqualConv2d(
        (conv): Conv2d(64, 128, kernel_size=(3, 3), stride=(2, 2))
      )
      (5): LeakyReLU(negative_slope=0.2, inplace=True)
      (6): ReflectionPad2d((1, 1, 1, 1))
      (7): EqualConv2d(
        (conv): Conv2d(128, 256, kernel_size=(3, 3), stride=(2, 2))
      )
      (8): LeakyReLU(negative_slope=0.2, inplace=True)
      (9): ReflectionPad2d((1, 1, 1, 1))
      (10): EqualConv2d(
        (conv): Conv2d(256, 512, kernel_size=(3, 3), stride=(2, 2))
      )
      (11): LeakyReLU(negative_slope=0.2, inplace=True)
      (12): ReflectionPad2d((1, 1, 1, 1))
      (13): EqualConv2d(
        (conv): Conv2d(512, 1024, kernel_size=(3, 3), stride=(2, 2))
      )
      (14): LeakyReLU(negative_slope=0.2, inplace=True)
      (15): EqualConv2d(
        (conv): Conv2d(1024, 300, kernel_size=(1, 1), stride=(1, 1))
      )
    )
  )
  (decoder): StyledDecoder(
    (StyledConvBlock_0): StyledConvBlock(
      (conv0): ModulatedConv2d(
        (mlp_class_std): Sequential(
          (0): EqualLinear(
            (linear): Linear(in_features=256, out_features=256, bias=True)
          )
          (1): PixelNorm()
        )
        (blur): Blur()
        (padding): ReflectionPad2d((1, 1, 1, 1))
      )
      (pxl_norm0): PixelNorm()
      (actvn0): LeakyReLU(negative_slope=0.2, inplace=True)
      (conv1): ModulatedConv2d(
        (mlp_class_std): Sequential(
          (0): EqualLinear(
            (linear): Linear(in_features=256, out_features=256, bias=True)
          )
          (1): PixelNorm()
        )
        (blur): Blur()
        (padding): ReflectionPad2d((1, 1, 1, 1))
      )
      (pxl_norm1): PixelNorm()
      (actvn1): LeakyReLU(negative_slope=0.2, inplace=True)
    )
    (StyledConvBlock_1): StyledConvBlock(
      (conv0): ModulatedConv2d(
        (mlp_class_std): Sequential(
          (0): EqualLinear(
            (linear): Linear(in_features=256, out_features=256, bias=True)
          )
          (1): PixelNorm()
        )
        (blur): Blur()
        (padding): ReflectionPad2d((1, 1, 1, 1))
      )
      (pxl_norm0): PixelNorm()
      (actvn0): LeakyReLU(negative_slope=0.2, inplace=True)
      (conv1): ModulatedConv2d(
        (mlp_class_std): Sequential(
          (0): EqualLinear(
            (linear): Linear(in_features=256, out_features=256, bias=True)
          )
          (1): PixelNorm()
        )
        (blur): Blur()
        (padding): ReflectionPad2d((1, 1, 1, 1))
      )
      (pxl_norm1): PixelNorm()
      (actvn1): LeakyReLU(negative_slope=0.2, inplace=True)
    )
    (StyledConvBlock_2): StyledConvBlock(
      (conv0): ModulatedConv2d(
        (mlp_class_std): Sequential(
          (0): EqualLinear(
            (linear): Linear(in_features=256, out_features=256, bias=True)
          )
          (1): PixelNorm()
        )
        (blur): Blur()
        (padding): ReflectionPad2d((1, 1, 1, 1))
      )
      (pxl_norm0): PixelNorm()
      (actvn0): LeakyReLU(negative_slope=0.2, inplace=True)
      (conv1): ModulatedConv2d(
        (mlp_class_std): Sequential(
          (0): EqualLinear(
            (linear): Linear(in_features=256, out_features=256, bias=True)
          )
          (1): PixelNorm()
        )
        (blur): Blur()
        (padding): ReflectionPad2d((1, 1, 1, 1))
      )
      (pxl_norm1): PixelNorm()
      (actvn1): LeakyReLU(negative_slope=0.2, inplace=True)
    )
    (StyledConvBlock_3): StyledConvBlock(
      (conv0): ModulatedConv2d(
        (mlp_class_std): Sequential(
          (0): EqualLinear(
            (linear): Linear(in_features=256, out_features=256, bias=True)
          )
          (1): PixelNorm()
        )
        (blur): Blur()
        (padding): ReflectionPad2d((1, 1, 1, 1))
      )
      (pxl_norm0): PixelNorm()
      (actvn0): LeakyReLU(negative_slope=0.2, inplace=True)
      (conv1): ModulatedConv2d(
        (mlp_class_std): Sequential(
          (0): EqualLinear(
            (linear): Linear(in_features=256, out_features=256, bias=True)
          )
          (1): PixelNorm()
        )
        (blur): Blur()
        (padding): ReflectionPad2d((1, 1, 1, 1))
      )
      (pxl_norm1): PixelNorm()
      (actvn1): LeakyReLU(negative_slope=0.2, inplace=True)
    )
    (StyledConvBlock_up0): StyledConvBlock(
      (conv0): ModulatedConv2d(
        (mlp_class_std): Sequential(
          (0): EqualLinear(
            (linear): Linear(in_features=256, out_features=256, bias=True)
          )
          (1): PixelNorm()
        )
        (blur): Blur()
        (padding): ReflectionPad2d((1, 1, 1, 1))
        (upsampler): Upsample(scale_factor=2.0, mode=nearest)
      )
      (pxl_norm0): PixelNorm()
      (actvn0): LeakyReLU(negative_slope=0.2, inplace=True)
      (conv1): ModulatedConv2d(
        (mlp_class_std): Sequential(
          (0): EqualLinear(
            (linear): Linear(in_features=256, out_features=128, bias=True)
          )
          (1): PixelNorm()
        )
        (blur): Blur()
        (padding): ReflectionPad2d((1, 1, 1, 1))
      )
      (pxl_norm1): PixelNorm()
      (actvn1): LeakyReLU(negative_slope=0.2, inplace=True)
    )
    (StyledConvBlock_up1): StyledConvBlock(
      (conv0): ModulatedConv2d(
        (mlp_class_std): Sequential(
          (0): EqualLinear(
            (linear): Linear(in_features=256, out_features=128, bias=True)
          )
          (1): PixelNorm()
        )
        (blur): Blur()
        (padding): ReflectionPad2d((1, 1, 1, 1))
        (upsampler): Upsample(scale_factor=2.0, mode=nearest)
      )
      (pxl_norm0): PixelNorm()
      (actvn0): LeakyReLU(negative_slope=0.2, inplace=True)
      (conv1): ModulatedConv2d(
        (mlp_class_std): Sequential(
          (0): EqualLinear(
            (linear): Linear(in_features=256, out_features=64, bias=True)
          )
          (1): PixelNorm()
        )
        (blur): Blur()
        (padding): ReflectionPad2d((1, 1, 1, 1))
      )
      (pxl_norm1): PixelNorm()
      (actvn1): LeakyReLU(negative_slope=0.2, inplace=True)
    )
    (conv_img): Sequential(
      (0): EqualConv2d(
        (conv): Conv2d(64, 3, kernel_size=(1, 1), stride=(1, 1))
      )
      (1): Tanh()
    )
    (mlp): MLP(
      (model): Sequential(
        (0): PixelNorm()
        (1): EqualLinear(
          (linear): Linear(in_features=300, out_features=256, bias=True)
        )
        (2): LeakyReLU(negative_slope=0.2, inplace=True)
        (3): PixelNorm()
        (4): EqualLinear(
          (linear): Linear(in_features=256, out_features=256, bias=True)
        )
        (5): LeakyReLU(negative_slope=0.2, inplace=True)
        (6): PixelNorm()
        (7): EqualLinear(
          (linear): Linear(in_features=256, out_features=256, bias=True)
        )
        (8): LeakyReLU(negative_slope=0.2, inplace=True)
        (9): PixelNorm()
        (10): EqualLinear(
          (linear): Linear(in_features=256, out_features=256, bias=True)
        )
        (11): LeakyReLU(negative_slope=0.2, inplace=True)
        (12): PixelNorm()
        (13): EqualLinear(
          (linear): Linear(in_features=256, out_features=256, bias=True)
        )
        (14): LeakyReLU(negative_slope=0.2, inplace=True)
        (15): PixelNorm()
        (16): EqualLinear(
          (linear): Linear(in_features=256, out_features=256, bias=True)
        )
        (17): LeakyReLU(negative_slope=0.2, inplace=True)
        (18): PixelNorm()
        (19): EqualLinear(
          (linear): Linear(in_features=256, out_features=256, bias=True)
        )
        (20): LeakyReLU(negative_slope=0.2, inplace=True)
        (21): PixelNorm()
        (22): EqualLinear(
          (linear): Linear(in_features=256, out_features=256, bias=True)
        )
        (23): PixelNorm()
      )
    )
    (mlp1): MLP(
      (model): Sequential(
        (0): PixelNorm()
        (1): EqualLinear(
          (linear): Linear(in_features=300, out_features=256, bias=True)
        )
        (2): LeakyReLU(negative_slope=0.2, inplace=True)
        (3): PixelNorm()
        (4): EqualLinear(
          (linear): Linear(in_features=256, out_features=256, bias=True)
        )
        (5): LeakyReLU(negative_slope=0.2, inplace=True)
        (6): PixelNorm()
        (7): EqualLinear(
          (linear): Linear(in_features=256, out_features=256, bias=True)
        )
        (8): PixelNorm()
      )
    )
    (func): func(
      (mlp1): MLP(
        (model): Sequential(
          (0): PixelNorm()
          (1): EqualLinear(
            (linear): Linear(in_features=257, out_features=256, bias=True)
          )
          (2): LeakyReLU(negative_slope=0.2, inplace=True)
          (3): PixelNorm()
          (4): EqualLinear(
            (linear): Linear(in_features=256, out_features=256, bias=True)
          )
          (5): LeakyReLU(negative_slope=0.2, inplace=True)
          (6): PixelNorm()
          (7): EqualLinear(
            (linear): Linear(in_features=256, out_features=256, bias=True)
          )
          (8): PixelNorm()
        )
      )
    )
    (mlp2): MLP(
      (model): Sequential(
        (0): PixelNorm()
        (1): EqualLinear(
          (linear): Linear(in_features=256, out_features=256, bias=True)
        )
        (2): LeakyReLU(negative_slope=0.2, inplace=True)
        (3): PixelNorm()
        (4): EqualLinear(
          (linear): Linear(in_features=256, out_features=256, bias=True)
        )
        (5): LeakyReLU(negative_slope=0.2, inplace=True)
        (6): PixelNorm()
        (7): EqualLinear(
          (linear): Linear(in_features=256, out_features=256, bias=True)
        )
        (8): LeakyReLU(negative_slope=0.2, inplace=True)
        (9): PixelNorm()
        (10): EqualLinear(
          (linear): Linear(in_features=256, out_features=256, bias=True)
        )
        (11): LeakyReLU(negative_slope=0.2, inplace=True)
        (12): PixelNorm()
        (13): EqualLinear(
          (linear): Linear(in_features=256, out_features=256, bias=True)
        )
        (14): PixelNorm()
      )
    )
  )
)
Generator(
  (id_encoder): IdentityEncoder(
    (encoder): Sequential(
      (0): ReflectionPad2d((3, 3, 3, 3))
      (1): EqualConv2d(
        (conv): Conv2d(3, 64, kernel_size=(7, 7), stride=(1, 1))
      )
      (2): PixelNorm()
      (3): ReLU(inplace=True)
      (4): ReflectionPad2d((1, 1, 1, 1))
      (5): EqualConv2d(
        (conv): Conv2d(64, 128, kernel_size=(3, 3), stride=(2, 2))
      )
      (6): PixelNorm()
      (7): ReLU(inplace=True)
      (8): ReflectionPad2d((1, 1, 1, 1))
      (9): EqualConv2d(
        (conv): Conv2d(128, 256, kernel_size=(3, 3), stride=(2, 2))
      )
      (10): PixelNorm()
      (11): ReLU(inplace=True)
      (12): ResnetBlock(
        (conv_block): Sequential(
          (0): ReflectionPad2d((1, 1, 1, 1))
          (1): EqualConv2d(
            (conv): Conv2d(256, 256, kernel_size=(3, 3), stride=(1, 1))
          )
          (2): PixelNorm()
          (3): ReLU(inplace=True)
          (4): ReflectionPad2d((1, 1, 1, 1))
          (5): EqualConv2d(
            (conv): Conv2d(256, 256, kernel_size=(3, 3), stride=(1, 1))
          )
          (6): PixelNorm()
        )
      )
      (13): ResnetBlock(
        (conv_block): Sequential(
          (0): ReflectionPad2d((1, 1, 1, 1))
          (1): EqualConv2d(
            (conv): Conv2d(256, 256, kernel_size=(3, 3), stride=(1, 1))
          )
          (2): PixelNorm()
          (3): ReLU(inplace=True)
          (4): ReflectionPad2d((1, 1, 1, 1))
          (5): EqualConv2d(
            (conv): Conv2d(256, 256, kernel_size=(3, 3), stride=(1, 1))
          )
          (6): PixelNorm()
        )
      )
      (14): ResnetBlock(
        (conv_block): Sequential(
          (0): ReflectionPad2d((1, 1, 1, 1))
          (1): EqualConv2d(
            (conv): Conv2d(256, 256, kernel_size=(3, 3), stride=(1, 1))
          )
          (2): PixelNorm()
          (3): ReLU(inplace=True)
          (4): ReflectionPad2d((1, 1, 1, 1))
          (5): EqualConv2d(
            (conv): Conv2d(256, 256, kernel_size=(3, 3), stride=(1, 1))
          )
          (6): PixelNorm()
        )
      )
      (15): ResnetBlock(
        (conv_block): Sequential(
          (0): ReflectionPad2d((1, 1, 1, 1))
          (1): EqualConv2d(
            (conv): Conv2d(256, 256, kernel_size=(3, 3), stride=(1, 1))
          )
          (2): PixelNorm()
          (3): ReLU(inplace=True)
          (4): ReflectionPad2d((1, 1, 1, 1))
          (5): EqualConv2d(
            (conv): Conv2d(256, 256, kernel_size=(3, 3), stride=(1, 1))
          )
          (6): PixelNorm()
        )
      )
    )
  )
  (age_encoder): AgeEncoder(
    (encoder): Sequential(
      (0): ReflectionPad2d((3, 3, 3, 3))
      (1): EqualConv2d(
        (conv): Conv2d(3, 64, kernel_size=(7, 7), stride=(1, 1))
      )
      (2): LeakyReLU(negative_slope=0.2, inplace=True)
      (3): ReflectionPad2d((1, 1, 1, 1))
      (4): EqualConv2d(
        (conv): Conv2d(64, 128, kernel_size=(3, 3), stride=(2, 2))
      )
      (5): LeakyReLU(negative_slope=0.2, inplace=True)
      (6): ReflectionPad2d((1, 1, 1, 1))
      (7): EqualConv2d(
        (conv): Conv2d(128, 256, kernel_size=(3, 3), stride=(2, 2))
      )
      (8): LeakyReLU(negative_slope=0.2, inplace=True)
      (9): ReflectionPad2d((1, 1, 1, 1))
      (10): EqualConv2d(
        (conv): Conv2d(256, 512, kernel_size=(3, 3), stride=(2, 2))
      )
      (11): LeakyReLU(negative_slope=0.2, inplace=True)
      (12): ReflectionPad2d((1, 1, 1, 1))
      (13): EqualConv2d(
        (conv): Conv2d(512, 1024, kernel_size=(3, 3), stride=(2, 2))
      )
      (14): LeakyReLU(negative_slope=0.2, inplace=True)
      (15): EqualConv2d(
        (conv): Conv2d(1024, 300, kernel_size=(1, 1), stride=(1, 1))
      )
    )
  )
  (decoder): StyledDecoder(
    (StyledConvBlock_0): StyledConvBlock(
      (conv0): ModulatedConv2d(
        (mlp_class_std): Sequential(
          (0): EqualLinear(
            (linear): Linear(in_features=256, out_features=256, bias=True)
          )
          (1): PixelNorm()
        )
        (blur): Blur()
        (padding): ReflectionPad2d((1, 1, 1, 1))
      )
      (pxl_norm0): PixelNorm()
      (actvn0): LeakyReLU(negative_slope=0.2, inplace=True)
      (conv1): ModulatedConv2d(
        (mlp_class_std): Sequential(
          (0): EqualLinear(
            (linear): Linear(in_features=256, out_features=256, bias=True)
          )
          (1): PixelNorm()
        )
        (blur): Blur()
        (padding): ReflectionPad2d((1, 1, 1, 1))
      )
      (pxl_norm1): PixelNorm()
      (actvn1): LeakyReLU(negative_slope=0.2, inplace=True)
    )
    (StyledConvBlock_1): StyledConvBlock(
      (conv0): ModulatedConv2d(
        (mlp_class_std): Sequential(
          (0): EqualLinear(
            (linear): Linear(in_features=256, out_features=256, bias=True)
          )
          (1): PixelNorm()
        )
        (blur): Blur()
        (padding): ReflectionPad2d((1, 1, 1, 1))
      )
      (pxl_norm0): PixelNorm()
      (actvn0): LeakyReLU(negative_slope=0.2, inplace=True)
      (conv1): ModulatedConv2d(
        (mlp_class_std): Sequential(
          (0): EqualLinear(
            (linear): Linear(in_features=256, out_features=256, bias=True)
          )
          (1): PixelNorm()
        )
        (blur): Blur()
        (padding): ReflectionPad2d((1, 1, 1, 1))
      )
      (pxl_norm1): PixelNorm()
      (actvn1): LeakyReLU(negative_slope=0.2, inplace=True)
    )
    (StyledConvBlock_2): StyledConvBlock(
      (conv0): ModulatedConv2d(
        (mlp_class_std): Sequential(
          (0): EqualLinear(
            (linear): Linear(in_features=256, out_features=256, bias=True)
          )
          (1): PixelNorm()
        )
        (blur): Blur()
        (padding): ReflectionPad2d((1, 1, 1, 1))
      )
      (pxl_norm0): PixelNorm()
      (actvn0): LeakyReLU(negative_slope=0.2, inplace=True)
      (conv1): ModulatedConv2d(
        (mlp_class_std): Sequential(
          (0): EqualLinear(
            (linear): Linear(in_features=256, out_features=256, bias=True)
          )
          (1): PixelNorm()
        )
        (blur): Blur()
        (padding): ReflectionPad2d((1, 1, 1, 1))
      )
      (pxl_norm1): PixelNorm()
      (actvn1): LeakyReLU(negative_slope=0.2, inplace=True)
    )
    (StyledConvBlock_3): StyledConvBlock(
      (conv0): ModulatedConv2d(
        (mlp_class_std): Sequential(
          (0): EqualLinear(
            (linear): Linear(in_features=256, out_features=256, bias=True)
          )
          (1): PixelNorm()
        )
        (blur): Blur()
        (padding): ReflectionPad2d((1, 1, 1, 1))
      )
      (pxl_norm0): PixelNorm()
      (actvn0): LeakyReLU(negative_slope=0.2, inplace=True)
      (conv1): ModulatedConv2d(
        (mlp_class_std): Sequential(
          (0): EqualLinear(
            (linear): Linear(in_features=256, out_features=256, bias=True)
          )
          (1): PixelNorm()
        )
        (blur): Blur()
        (padding): ReflectionPad2d((1, 1, 1, 1))
      )
      (pxl_norm1): PixelNorm()
      (actvn1): LeakyReLU(negative_slope=0.2, inplace=True)
    )
    (StyledConvBlock_up0): StyledConvBlock(
      (conv0): ModulatedConv2d(
        (mlp_class_std): Sequential(
          (0): EqualLinear(
            (linear): Linear(in_features=256, out_features=256, bias=True)
          )
          (1): PixelNorm()
        )
        (blur): Blur()
        (padding): ReflectionPad2d((1, 1, 1, 1))
        (upsampler): Upsample(scale_factor=2.0, mode=nearest)
      )
      (pxl_norm0): PixelNorm()
      (actvn0): LeakyReLU(negative_slope=0.2, inplace=True)
      (conv1): ModulatedConv2d(
        (mlp_class_std): Sequential(
          (0): EqualLinear(
            (linear): Linear(in_features=256, out_features=128, bias=True)
          )
          (1): PixelNorm()
        )
        (blur): Blur()
        (padding): ReflectionPad2d((1, 1, 1, 1))
      )
      (pxl_norm1): PixelNorm()
      (actvn1): LeakyReLU(negative_slope=0.2, inplace=True)
    )
    (StyledConvBlock_up1): StyledConvBlock(
      (conv0): ModulatedConv2d(
        (mlp_class_std): Sequential(
          (0): EqualLinear(
            (linear): Linear(in_features=256, out_features=128, bias=True)
          )
          (1): PixelNorm()
        )
        (blur): Blur()
        (padding): ReflectionPad2d((1, 1, 1, 1))
        (upsampler): Upsample(scale_factor=2.0, mode=nearest)
      )
      (pxl_norm0): PixelNorm()
      (actvn0): LeakyReLU(negative_slope=0.2, inplace=True)
      (conv1): ModulatedConv2d(
        (mlp_class_std): Sequential(
          (0): EqualLinear(
            (linear): Linear(in_features=256, out_features=64, bias=True)
          )
          (1): PixelNorm()
        )
        (blur): Blur()
        (padding): ReflectionPad2d((1, 1, 1, 1))
      )
      (pxl_norm1): PixelNorm()
      (actvn1): LeakyReLU(negative_slope=0.2, inplace=True)
    )
    (conv_img): Sequential(
      (0): EqualConv2d(
        (conv): Conv2d(64, 3, kernel_size=(1, 1), stride=(1, 1))
      )
      (1): Tanh()
    )
    (mlp): MLP(
      (model): Sequential(
        (0): PixelNorm()
        (1): EqualLinear(
          (linear): Linear(in_features=300, out_features=256, bias=True)
        )
        (2): LeakyReLU(negative_slope=0.2, inplace=True)
        (3): PixelNorm()
        (4): EqualLinear(
          (linear): Linear(in_features=256, out_features=256, bias=True)
        )
        (5): LeakyReLU(negative_slope=0.2, inplace=True)
        (6): PixelNorm()
        (7): EqualLinear(
          (linear): Linear(in_features=256, out_features=256, bias=True)
        )
        (8): LeakyReLU(negative_slope=0.2, inplace=True)
        (9): PixelNorm()
        (10): EqualLinear(
          (linear): Linear(in_features=256, out_features=256, bias=True)
        )
        (11): LeakyReLU(negative_slope=0.2, inplace=True)
        (12): PixelNorm()
        (13): EqualLinear(
          (linear): Linear(in_features=256, out_features=256, bias=True)
        )
        (14): LeakyReLU(negative_slope=0.2, inplace=True)
        (15): PixelNorm()
        (16): EqualLinear(
          (linear): Linear(in_features=256, out_features=256, bias=True)
        )
        (17): LeakyReLU(negative_slope=0.2, inplace=True)
        (18): PixelNorm()
        (19): EqualLinear(
          (linear): Linear(in_features=256, out_features=256, bias=True)
        )
        (20): LeakyReLU(negative_slope=0.2, inplace=True)
        (21): PixelNorm()
        (22): EqualLinear(
          (linear): Linear(in_features=256, out_features=256, bias=True)
        )
        (23): PixelNorm()
      )
    )
    (mlp1): MLP(
      (model): Sequential(
        (0): PixelNorm()
        (1): EqualLinear(
          (linear): Linear(in_features=300, out_features=256, bias=True)
        )
        (2): LeakyReLU(negative_slope=0.2, inplace=True)
        (3): PixelNorm()
        (4): EqualLinear(
          (linear): Linear(in_features=256, out_features=256, bias=True)
        )
        (5): LeakyReLU(negative_slope=0.2, inplace=True)
        (6): PixelNorm()
        (7): EqualLinear(
          (linear): Linear(in_features=256, out_features=256, bias=True)
        )
        (8): PixelNorm()
      )
    )
    (func): func(
      (mlp1): MLP(
        (model): Sequential(
          (0): PixelNorm()
          (1): EqualLinear(
            (linear): Linear(in_features=257, out_features=256, bias=True)
          )
          (2): LeakyReLU(negative_slope=0.2, inplace=True)
          (3): PixelNorm()
          (4): EqualLinear(
            (linear): Linear(in_features=256, out_features=256, bias=True)
          )
          (5): LeakyReLU(negative_slope=0.2, inplace=True)
          (6): PixelNorm()
          (7): EqualLinear(
            (linear): Linear(in_features=256, out_features=256, bias=True)
          )
          (8): PixelNorm()
        )
      )
    )
    (mlp2): MLP(
      (model): Sequential(
        (0): PixelNorm()
        (1): EqualLinear(
          (linear): Linear(in_features=256, out_features=256, bias=True)
        )
        (2): LeakyReLU(negative_slope=0.2, inplace=True)
        (3): PixelNorm()
        (4): EqualLinear(
          (linear): Linear(in_features=256, out_features=256, bias=True)
        )
        (5): LeakyReLU(negative_slope=0.2, inplace=True)
        (6): PixelNorm()
        (7): EqualLinear(
          (linear): Linear(in_features=256, out_features=256, bias=True)
        )
        (8): LeakyReLU(negative_slope=0.2, inplace=True)
        (9): PixelNorm()
        (10): EqualLinear(
          (linear): Linear(in_features=256, out_features=256, bias=True)
        )
        (11): LeakyReLU(negative_slope=0.2, inplace=True)
        (12): PixelNorm()
        (13): EqualLinear(
          (linear): Linear(in_features=256, out_features=256, bias=True)
        )
        (14): PixelNorm()
      )
    )
  )
)
StyleGANDiscriminator(
  (model): Sequential(
    (0): ReflectionPad2d((0, 0, 0, 0))
    (1): EqualConv2d(
      (conv): Conv2d(3, 64, kernel_size=(1, 1), stride=(1, 1))
    )
    (2): LeakyReLU(negative_slope=0.2, inplace=True)
    (3): StyledConvBlock(
      (downsampler): AvgPool2d(kernel_size=2, stride=2, padding=0)
      (conv0): Sequential(
        (0): ReflectionPad2d((1, 1, 1, 1))
        (1): EqualConv2d(
          (conv): Conv2d(64, 128, kernel_size=(3, 3), stride=(1, 1))
        )
      )
      (actvn0): LeakyReLU(negative_slope=0.2, inplace=True)
      (conv1): Sequential(
        (0): Blur()
        (1): ReflectionPad2d((1, 1, 1, 1))
        (2): EqualConv2d(
          (conv): Conv2d(128, 128, kernel_size=(3, 3), stride=(1, 1))
        )
        (3): AvgPool2d(kernel_size=2, stride=2, padding=0)
      )
      (actvn1): LeakyReLU(negative_slope=0.2, inplace=True)
    )
    (4): StyledConvBlock(
      (downsampler): AvgPool2d(kernel_size=2, stride=2, padding=0)
      (conv0): Sequential(
        (0): ReflectionPad2d((1, 1, 1, 1))
        (1): EqualConv2d(
          (conv): Conv2d(128, 256, kernel_size=(3, 3), stride=(1, 1))
        )
      )
      (actvn0): LeakyReLU(negative_slope=0.2, inplace=True)
      (conv1): Sequential(
        (0): Blur()
        (1): ReflectionPad2d((1, 1, 1, 1))
        (2): EqualConv2d(
          (conv): Conv2d(256, 256, kernel_size=(3, 3), stride=(1, 1))
        )
        (3): AvgPool2d(kernel_size=2, stride=2, padding=0)
      )
      (actvn1): LeakyReLU(negative_slope=0.2, inplace=True)
    )
    (5): StyledConvBlock(
      (downsampler): AvgPool2d(kernel_size=2, stride=2, padding=0)
      (conv0): Sequential(
        (0): ReflectionPad2d((1, 1, 1, 1))
        (1): EqualConv2d(
          (conv): Conv2d(256, 512, kernel_size=(3, 3), stride=(1, 1))
        )
      )
      (actvn0): LeakyReLU(negative_slope=0.2, inplace=True)
      (conv1): Sequential(
        (0): Blur()
        (1): ReflectionPad2d((1, 1, 1, 1))
        (2): EqualConv2d(
          (conv): Conv2d(512, 512, kernel_size=(3, 3), stride=(1, 1))
        )
        (3): AvgPool2d(kernel_size=2, stride=2, padding=0)
      )
      (actvn1): LeakyReLU(negative_slope=0.2, inplace=True)
    )
    (6): StyledConvBlock(
      (downsampler): AvgPool2d(kernel_size=2, stride=2, padding=0)
      (conv0): Sequential(
        (0): ReflectionPad2d((1, 1, 1, 1))
        (1): EqualConv2d(
          (conv): Conv2d(512, 512, kernel_size=(3, 3), stride=(1, 1))
        )
      )
      (actvn0): LeakyReLU(negative_slope=0.2, inplace=True)
      (conv1): Sequential(
        (0): Blur()
        (1): ReflectionPad2d((1, 1, 1, 1))
        (2): EqualConv2d(
          (conv): Conv2d(512, 512, kernel_size=(3, 3), stride=(1, 1))
        )
        (3): AvgPool2d(kernel_size=2, stride=2, padding=0)
      )
      (actvn1): LeakyReLU(negative_slope=0.2, inplace=True)
    )
    (7): StyledConvBlock(
      (downsampler): AvgPool2d(kernel_size=2, stride=2, padding=0)
      (conv0): Sequential(
        (0): ReflectionPad2d((1, 1, 1, 1))
        (1): EqualConv2d(
          (conv): Conv2d(512, 512, kernel_size=(3, 3), stride=(1, 1))
        )
      )
      (actvn0): LeakyReLU(negative_slope=0.2, inplace=True)
      (conv1): Sequential(
        (0): Blur()
        (1): ReflectionPad2d((1, 1, 1, 1))
        (2): EqualConv2d(
          (conv): Conv2d(512, 512, kernel_size=(3, 3), stride=(1, 1))
        )
        (3): AvgPool2d(kernel_size=2, stride=2, padding=0)
      )
      (actvn1): LeakyReLU(negative_slope=0.2, inplace=True)
    )
    (8): StyledConvBlock(
      (downsampler): AvgPool2d(kernel_size=2, stride=2, padding=0)
      (conv0): Sequential(
        (0): ReflectionPad2d((1, 1, 1, 1))
        (1): EqualConv2d(
          (conv): Conv2d(512, 512, kernel_size=(3, 3), stride=(1, 1))
        )
      )
      (actvn0): LeakyReLU(negative_slope=0.2, inplace=True)
      (conv1): Sequential(
        (0): Blur()
        (1): ReflectionPad2d((1, 1, 1, 1))
        (2): EqualConv2d(
          (conv): Conv2d(512, 512, kernel_size=(3, 3), stride=(1, 1))
        )
        (3): AvgPool2d(kernel_size=2, stride=2, padding=0)
      )
      (actvn1): LeakyReLU(negative_slope=0.2, inplace=True)
    )
  )
  (gan_head): Sequential(
    (0): ReflectionPad2d((1, 1, 1, 1))
    (1): EqualConv2d(
      (conv): Conv2d(513, 512, kernel_size=(3, 3), stride=(1, 1))
    )
    (2): LeakyReLU(negative_slope=0.2, inplace=True)
    (3): EqualConv2d(
      (conv): Conv2d(512, 6, kernel_size=(4, 4), stride=(1, 1))
    )
    (4): LeakyReLU(negative_slope=0.2, inplace=True)
  )
)
---------- Networks initialized -------------
original: module.id_encoder.encoder.1.conv.bias
original: module.id_encoder.encoder.1.conv.weight_orig
original: module.id_encoder.encoder.5.conv.bias
original: module.id_encoder.encoder.5.conv.weight_orig
original: module.id_encoder.encoder.9.conv.bias
…
